…
2018-12-11 04:21:51.563767: I tensorflow/core/common_runtime/gpu/gpu_device.cc:990] 0:   N 
2018-12-11 04:21:51.564134: I tensorflow/core/common_runtime/gpu/gpu_device.cc:1103] Created TensorFlow device (/job:localhost/replica:0/task:0/device:GPU:0 with 15129 MB memory) -> physical GPU (device: 0, name: Tesla P100-PCIE-16GB, pci bus id: 0000:00:04.0, compute capability: 6.0)
_________________________________________________________________
Layer (type)                 Output Shape              Param #   
=================================================================
conv2d_1 (Conv2D)            (None, 14, 14, 32)        320       
_________________________________________________________________
leaky_re_lu_1 (LeakyReLU)    (None, 14, 14, 32)        0         
_________________________________________________________________
dropout_1 (Dropout)          (None, 14, 14, 32)        0         
_________________________________________________________________
conv2d_2 (Conv2D)            (None, 7, 7, 64)          18496     
_________________________________________________________________
zero_padding2d_1 (ZeroPaddin (None, 8, 8, 64)          0         
_________________________________________________________________
batch_normalization_1 (Batch (None, 8, 8, 64)          256       
_________________________________________________________________
leaky_re_lu_2 (LeakyReLU)    (None, 8, 8, 64)          0         
_________________________________________________________________
dropout_2 (Dropout)          (None, 8, 8, 64)          0         
_________________________________________________________________
conv2d_3 (Conv2D)            (None, 4, 4, 128)         73856     
_________________________________________________________________
batch_normalization_2 (Batch (None, 4, 4, 128)         512       
_________________________________________________________________
leaky_re_lu_3 (LeakyReLU)    (None, 4, 4, 128)         0         
_________________________________________________________________
dropout_3 (Dropout)          (None, 4, 4, 128)         0         
_________________________________________________________________
conv2d_4 (Conv2D)            (None, 4, 4, 256)         295168    
_________________________________________________________________
batch_normalization_3 (Batch (None, 4, 4, 256)         1024      
_________________________________________________________________
leaky_re_lu_4 (LeakyReLU)    (None, 4, 4, 256)         0         
_________________________________________________________________
dropout_4 (Dropout)          (None, 4, 4, 256)         0         
_________________________________________________________________
flatten_1 (Flatten)          (None, 4096)              0         
_________________________________________________________________
dense_1 (Dense)              (None, 1)                 4097      
=================================================================
Total params: 393,729
Trainable params: 392,833
Non-trainable params: 896
_________________________________________________________________
_________________________________________________________________
Layer (type)                 Output Shape              Param #   
=================================================================
conv2d_5 (Conv2D)            (None, 32, 32, 32)        896       
_________________________________________________________________
activation_1 (Activation)    (None, 32, 32, 32)        0         
_________________________________________________________________
conv2d_6 (Conv2D)            (None, 30, 30, 32)        9248      
_________________________________________________________________
activation_2 (Activation)    (None, 30, 30, 32)        0         
_________________________________________________________________
max_pooling2d_1 (MaxPooling2 (None, 15, 15, 32)        0         
_________________________________________________________________
dropout_5 (Dropout)          (None, 15, 15, 32)        0         
_________________________________________________________________
conv2d_7 (Conv2D)            (None, 15, 15, 64)        18496     
_________________________________________________________________
activation_3 (Activation)    (None, 15, 15, 64)        0         
_________________________________________________________________
conv2d_8 (Conv2D)            (None, 13, 13, 64)        36928     
______________________________________________________________/home/admiral/.local/lib/python2.7/site-packages/keras/engine/training.py:490: UserWarning: Discrepancy between trainable weights and collected trainable weights, did you set `model.trainable` without calling `model.compile` after ?
  'Discrepancy between trainable weights and collected trainable'
___
activation_4 (Activation)    (None, 13, 13, 64)        0         
_________________________________________________________________
max_pooling2d_2 (MaxPooling2 (None, 6, 6, 64)          0         
_________________________________________________________________
dropout_6 (Dropout)          (None, 6, 6, 64)          0         
_________________________________________________________________
flatten_2 (Flatten)          (None, 2304)              0         
_________________________________________________________________
dense_2 (Dense)              (None, 512)               1180160   
_________________________________________________________________
activation_5 (Activation)    (None, 512)               0         
_________________________________________________________________
batch_normalization_4 (Batch (None, 512)               2048      
_________________________________________________________________
dense_3 (Dense)              (None, 6272)              3217536   
_________________________________________________________________
reshape_1 (Reshape)          (None, 7, 7, 128)         0         
_________________________________________________________________
up_sampling2d_1 (UpSampling2 (None, 14, 14, 128)       0         
_________________________________________________________________
conv2d_9 (Conv2D)            (None, 14, 14, 128)       147584    
_________________________________________________________________
batch_normalization_5 (Batch (None, 14, 14, 128)       512       
_________________________________________________________________
activation_6 (Activation)    (None, 14, 14, 128)       0         
_________________________________________________________________
up_sampling2d_2 (UpSampling2 (None, 28, 28, 128)       0         
_________________________________________________________________
conv2d_10 (Conv2D)           (None, 28, 28, 64)        73792     
_________________________________________________________________
batch_normalization_6 (Batch (None, 28, 28, 64)        256       
_________________________________________________________________
activation_7 (Activation)    (None, 28, 28, 64)        0         
_________________________________________________________________
conv2d_11 (Conv2D)           (None, 28, 28, 1)         577       
_________________________________________________________________
activation_8 (Activation)    (None, 28, 28, 1)         0         
=================================================================
Total params: 4,688,033
Trainable params: 4,686,625
Non-trainable params: 1,408
_________________________________________________________________
0 [D loss: 1.417756, acc.: 30.00%] [G loss: 0.566290]
1 [D loss: 0.800829, acc.: 55.64%] [G loss: 0.784258]
2 [D loss: 0.395096, acc.: 84.25%] [G loss: 0.811112]
3 [D loss: 0.236759, acc.: 94.43%] [G loss: 0.555213]
…
